7767517
26 29
Input            input                    0 1 input
Convolution      Conv_0                   1 1 input input.1 0=8 1=4 11=4 2=1 12=1 3=2 13=2 4=1 14=1 15=1 16=1 5=1 6=384
ReLU             LeakyRelu_1              1 1 input.1 onnx::Conv_48 0=2.000000e-01
Split            splitncnn_0              1 2 onnx::Conv_48 onnx::Conv_48_splitncnn_0 onnx::Conv_48_splitncnn_1
Convolution      Conv_2                   1 1 onnx::Conv_48_splitncnn_1 input.8 0=16 1=4 11=4 2=1 12=1 3=2 13=2 4=1 14=1 15=1 16=1 5=1 6=2048
ReLU             LeakyRelu_3              1 1 input.8 onnx::Conv_51 0=2.000000e-01
Split            splitncnn_1              1 2 onnx::Conv_51 onnx::Conv_51_splitncnn_0 onnx::Conv_51_splitncnn_1
Convolution      Conv_4                   1 1 onnx::Conv_51_splitncnn_1 input.16 0=32 1=4 11=4 2=1 12=1 3=2 13=2 4=1 14=1 15=1 16=1 5=1 6=8192
ReLU             LeakyRelu_5              1 1 input.16 onnx::Conv_54 0=2.000000e-01
Split            splitncnn_2              1 2 onnx::Conv_54 onnx::Conv_54_splitncnn_0 onnx::Conv_54_splitncnn_1
Convolution      Conv_6                   1 1 onnx::Conv_54_splitncnn_1 input.24 0=64 1=4 11=4 2=1 12=1 3=2 13=2 4=1 14=1 15=1 16=1 5=1 6=32768
ReLU             LeakyRelu_7              1 1 input.24 onnx::ConvTranspose_57 0=2.000000e-01
Deconvolution    ConvTranspose_8          1 1 onnx::ConvTranspose_57 input.28 0=32 1=4 11=4 2=1 12=1 3=2 13=2 4=1 14=1 15=1 16=1 5=1 6=32768
BatchNorm        BatchNormalization_9     1 1 input.28 input.32 0=32
ReLU             Relu_10                  1 1 input.32 onnx::Concat_60
Concat           Concat_11                2 1 onnx::Concat_60 onnx::Conv_54_splitncnn_0 onnx::ConvTranspose_61 0=0
Deconvolution    ConvTranspose_12         1 1 onnx::ConvTranspose_61 input.36 0=16 1=4 11=4 2=1 12=1 3=2 13=2 4=1 14=1 15=1 16=1 5=1 6=16384
BatchNorm        BatchNormalization_13    1 1 input.36 input.40 0=16
ReLU             Relu_14                  1 1 input.40 onnx::Concat_64
Concat           Concat_15                2 1 onnx::Concat_64 onnx::Conv_51_splitncnn_0 onnx::ConvTranspose_65 0=0
Deconvolution    ConvTranspose_16         1 1 onnx::ConvTranspose_65 input.44 0=8 1=4 11=4 2=1 12=1 3=2 13=2 4=1 14=1 15=1 16=1 5=1 6=4096
BatchNorm        BatchNormalization_17    1 1 input.44 input.48 0=8
ReLU             Relu_18                  1 1 input.48 onnx::Concat_68
Concat           Concat_19                2 1 onnx::Concat_68 onnx::Conv_48_splitncnn_0 onnx::ConvTranspose_69 0=0
Deconvolution    ConvTranspose_20         1 1 onnx::ConvTranspose_69 onnx::Sigmoid_70 0=1 1=4 11=4 2=1 12=1 3=2 13=2 4=1 14=1 15=1 16=1 5=1 6=256
Sigmoid          Sigmoid_21               1 1 onnx::Sigmoid_70 output
